Match_Algorithm_System/match_ML_v3/models/neural_network.onnx (onnx, 49738 bytes, 7 tensors)

coefficient f4 [13, 128]
00000000: fb30 a1bd 4bf2 d43e 0000 0000 9a87 663d
00000010: 0000 0080 98bc 71be 30e3 43be 48c2 ea3d
00000020: b653 27be 0363 883b a3ae 82be 6ded 893e
00000030: 2739 89bd 806c a73c 13b0 f9bd 93a3 9fbc
00000040: d49f 0ebe e715 96bc e164 debd 0fc9 01be
00000050: a1c9 833c 6cb0 63be 9605 1dbe 5f59 483e
00000060: 65ba d3bc 531a 2c3e 2d47 ddbd 0fbd 7abc
00000070: 43c1 9c3d 9739 bdbe 4904 3d3d 45f3 60be
00000080: adb0 ddbd cb9e 2e3f 8c42 f03e bc67 1d3e
00000090: 1b29 edbd ccba 77bd 0f13 f83d 26f3 67bc
000000a0: 0000 0080 e765 83bc 3d77 b7be 0381 a53d
000000b0: 836c f53e 68e7 17bc 72dd 94bc be75 943c
000000c0: bd10 843e 0000 0080 e36e abba dd43 393d
000000d0: 3c02 543e 02a4 c23e 2092 1c3e e791 4d3e
000000e0: 261b 31be 4d44 debd 8b07 80be fdf9 f4bd
000000f0: 8823 f9bb 5cac ac3e a6e4 133f 9bac 90bd
00000100: 488c 9ebc 0b95 313e 07ec bebe fd3a 3a3d
00000110: f868 7fbe 3e6c 903e b1fb ba3e 5851 8d3e
00000120: 12c9 f1bd 5ee6 943e eb07 903d ee7c 023e
00000130: e7e2 2e3e b611 7ebe e566 b4bb 2534 30bd
00000140: a60e 253e b04c bb3e f76a 993e 8e85 5cbe
00000150: f2bf 18be c998 1bbe 081f 173f 4fd4 1f3f
00000160: 5168 3d3e d939 ff3c 7bd6 c0bd b2e6 283f
00000170: 6614 ad3d 4e2d ce3d 7bf0 db3d 9eac f1bd
00000180: bcaf 9cbb cf15 0abe 7ffc aebe 9696 183d
00000190: a356 7fbe 5ebe 813d 3254 c43c fcb8 e03e
000001a0: 195a d83d f47d a13c 285c 013d 4334 c43d
000001b0: ad90 35be 3a79 84be 0a5e 3fbe 82d1 aabd
000001c0: 0dbd 123d 1639 fe3e 5fcd 73bb 2ef2 f73d
000001d0: eb4c 36bd 235c 65bc 3ec6 153c f312 603d
000001e0: b8bd 8e3e cd13 2e3e 82c6 3fbe 61bf 21be
000001f0: 69c2 1fbe fb00 4fbe 96da 923d 2541 243e
00000200: 3803 82be 7352 253e 0000 0000 25c1 ecbd
00000210: 0000 0080 e2c2 33be 3437 7a3e 6999 07be
00000220: 3e61 1cbe 8568 0b3d 5326 b9bc fbc6 843e
00000230: 8146 cf3b b3d2 463c f7dd 4f3c af0e 9bbc
00000240: 774f 2ebe e835 69be c1b6 a9bc ff94 26bd
00000250: 0de9 4cbe ca5c 07be 8261 c13d 8cd1 4e3e
00000260: 9cb8 1cbe 265a 663d 5d95 663e 26fa f9bd
00000270: a2f7 d73d a24d 093c a3fc cfbd 4e15 a63c
00000280: 1972 82bd 7caa fa3e 7f2c 8f3e 3729 dd3c
00000290: 02c3 51be b055 6e3e eeb4 3dbd d969 e5bd
000002a0: 0000 0000 eb4e d33c ddaa ecbc 3c83 8cbe
000002b0: 717a 063f 1d8d 2ebe aafb d63d e914 cebd
000002c0: 3fc9 863e 0000 0000 8270 4bbb 51dc 74be
000002d0: a4f8 63bd 38bb 113d 4344 863e 7abc 303e
000002e0: 796c e7bd df58 ae3d b86f 573e 4541 f6bc
000002f0: 6af2 633d 7ecc c93e a238 6e3e 0a2b 1d3e
00000300: cbc9 5cba d736 303e 6b98 65be 7569 e7bc
00000310: 1910 1d3d 6731 e33c 16bf b13e 0f87 253f
00000320: bc1f f93d 881b 87bd bdc2 22be 2834 1c3e
00000330: bc74 c73d cc65 84be 8079 a6bd da98 053e
00000340: c426 54be a05a f6bc 03bb 653e cad4 1f3d
00000350: 16cf 353d 5df9 fbbd 77b5 033f c393 d63e
00000360: 1ef2 a3bc 18d8 2b3e 09a4 d93d f704 373f
00000370: 2c6f 4c3d 0331 ec3d 8a1b 2abe 62e3 24be
00000380: 8741 e0bd 6253 1dbe 887b dc3d 7d3e de3d
00000390: 1b24 ec3d 7630 8b3d ae48 573e 5316 ab3e
000003a0: ffbc c7bc 7e32 3d3d dd77 76bd 22e1 9a3d
000003b0: 077f 12be 943f 87be c41a 3ebd c437 9bbd
000003c0: 7fe9 1f3d ab30 153f 04f6 7b3c 982d cabd
000003d0: 921c cdbe 81df 13bc 6ad7 04be 2713 943e
000003e0: 12fe ec3d aff3 163e 2c4b 26be 5ce3 4abd
000003f0: 2ad3 cd3d be53 69be 758f 41be 96ed 2c3d
-0.078706704 0.41591105 0.0 0.056281663 -0.0 -0.23607099 -0.19129634 0.114628375
-0.16340527 0.0041621937 -0.25523862 0.26938954 -0.06700354 0.020437479 -0.121917866 -0.019487178
-0.13928157 -0.01832099 -0.10859085 -0.12674354 0.016087355 -0.22235268 -0.15334162 0.19565342
-0.025845716 0.16806917 -0.10804591 -0.015303864 0.07654049 -0.36958 0.046146665 -0.219678
-0.10824714 0.6821105 0.4692577 0.15371603 -0.11580106 -0.060480878 0.1211301 -0.014157092
-0.0 -0.016039802 -0.3583316 0.08081248 0.4793435 -0.00927148 -0.018172 0.01812255
0.2579402 -0.0 -0.0013079311 0.045230735 0.20703977 0.38015753 0.15290117 0.20075189
-0.17295513 -0.10852871 -0.25005755 -0.11961744 -0.0076031126 0.3372525 0.57770765 -0.07064172
-0.019354 0.17342012 -0.3728945 0.04546641 -0.24942386 0.28207582 0.3652015 0.27601123
-0.11805929 0.29082006 0.0703276 0.1274297 0.17078744 -0.24811444 -0.00550543 -0.04301848
0.16118869 0.36581945 0.2996442 -0.21535322 -0.14916971 -0.15195002 0.59031725 0.6243333
0.18496825 0.031155514 -0.09415909 0.65977013 0.08451156 0.10067235 0.107392274 -0.11800502
-0.0047816914 -0.13484882 -0.34177014 0.037252985 -0.24935393 0.06335138 0.023965929 0.43891132
0.1056406 0.01971338 0.031582028 0.09580281 -0.1773097 -0.2587374 -0.18688217 -0.08340742
0.035824824 0.49652928 -0.0037201268 0.12106739 -0.04450695 -0.013999018 0.009141503 0.05470557
0.2787912 0.16999741 -0.18728068 -0.15795662 -0.15601505 -0.20215218 0.07170598 0.16040476
-0.2539308 0.16144733 0.0 -0.11560277 -0.0 -0.1755481 0.24435121 -0.13242115
-0.1527147 0.034035224 -0.022601282 0.2593306 0.0063255434 0.012135196 0.012687198 -0.0189279
-0.17022501 -0.2277447 -0.020717027 -0.040669437 -0.20010777 -0.1321899 0.09442426 0.20197123
-0.15304798 0.056238316 0.22517915 -0.12205915 0.10545279 0.0083803255 -0.101556085 0.02027383
-0.06369419 0.48958194 0.27963635 0.026997192 -0.20484546 0.23274875 -0.046315126 -0.112018295
0.0 0.025794467 -0.028890068 -0.27443874 0.5253058 -0.17046018 0.1049722 -0.10062582
0.26325414 0.0 -0.0031042402 -0.23912169 -0.055657044 0.035578936 0.26223955 0.17259398
-0.112999864 0.085130446 0.21038711 -0.03006042 0.055651106 0.39413828 0.23263791 0.1534845
-0.00084224035 0.1720842 -0.22421424 -0.028248528 0.03834543 0.027733518 0.347161 0.6465921
0.12164256 -0.06597048 -0.158946 0.15254271 0.09739062 -0.25858915 -0.08128643 0.1304659
-0.20717913 -0.03007251 0.2243462 0.03902129 0.044386946 -0.12303422 0.5144877 0.41909608
-0.020012911 0.16781652 0.1062699 0.7149195 0.04991071 0.11532786 -0.16612068 -0.16102365
-0.10949998 -0.1536384 0.10765749 0.108517624 0.11530324 0.067963526 0.21023819 0.3341547
-0.024382113 0.04619073 -0.060172904 0.07562472 -0.1430627 -0.26415694 -0.046412244 -0.07578996
0.03904104 0.58277386 0.015378479 -0.098719776 -0.4006086 -0.009025455 -0.12972799 0.28920862
0.115718976 0.14741395 -0.16239613 -0.049533233 0.10050042 -0.22785851 -0.18902381 0.042218767

intercepts f4 [1, 128]
00000000: 4bff 313c 5d40 203f 8d4a f6bd f8a2 6e3e
00000010: e112 22be e648 fcbd 574b fb3d 838b 2f3d
00000020: 5f36 f2be 11aa 2ebd 6825 0abd 2962 b93d
00000030: f128 febe fce9 a43e 4fa4 73bd d19e 7c3d
00000040: f30a 6dbe 8b57 193e 979d d6bd df87 a33b
00000050: 4dd1 79be dc33 273d d31b 013c cb64 363f
00000060: 1da1 a53d 4c73 5a3e da44 00bd 4143 2bbc
00000070: f19f 2bbd f099 34bf ae81 71bd 2844 3cbf
00000080: 9665 44be 657f 5b3f 16e3 393f b005 213e
00000090: c9e5 ee3d f902 803e e84e 843d 9c4f 5c3d
000000a0: a16f ccbc c75c 47be 8267 85be 20a7 a0be
000000b0: 5faf 953f d410 c6bd f1e5 f2bc 2cce aabd
000000c0: 9d15 313f 6edd 87bc d6e6 4cbe f472 d1bc
000000d0: 0fbb 04be 452a 133f c33b fb3e af4f e4bc
000000e0: 191b 05be 02d6 1ebe 9702 383e 5301 bbbe
000000f0: b2ef 273e 96ba 4e3f 8709 5a3f ab03 663e
00000100: c403 e53d 7c7c e03e 0d86 13bf 1732 2c3d
00000110: c5f8 38be 88d0 37be 682e e23e 9aaa a33f
00000120: 24a7 093e 36f2 963e f11c fcbd 9b79 a43c
00000130: 1653 963e 960b 13bd fc1d cb3d 2c56 d53d
00000140: a479 d23b c06f 543f c6d7 093f 19f3 2dbe
00000150: 4a8a adbd a978 6abe f30f 883f aa34 813f
00000160: fe1a 2dbd f8e3 733e 0f33 9f3e 83b1 aa3f
00000170: fb4c 1a3e f4bc 3e3e 2a68 1fbe 5612 6cbe
00000180: 619c 94bd a43e 8bbd 6054 e9be c872 313e
00000190: 6a97 85be 544d 9fbd dd34 c63e 0f0c 413f
000001a0: fe92 25bd aa9c b73e 79ee ce3d 2f12 3c3d
000001b0: 2413 b8bb 3b03 1abd be99 1abe 3251 bc3d
000001c0: 7bef a13d c90b 813f 1243 efbd eeca 953d
000001d0: a92c 24bf 28ff 343e 268a 85be b882 843e
000001e0: 895a fb3e 6cd6 163e 69b8 0abe f8bc 053e
000001f0: fd43 99be 0ef4 debe 9eb0 8ebe 89c8 123e
0.010864089 0.6259821 -0.12025938 0.23304355 -0.15827514 -0.12318592 0.12270229 0.042857658
-0.47307107 -0.042642657 -0.03372708 0.09051926 -0.4964061 0.32209766 -0.05948287 0.061674897
-0.23148708 0.14974801 -0.104792766 0.0049905623 -0.24396248 0.04082094 0.007880169 0.7124755
0.080873705 0.21333045 -0.031315662 -0.010453046 -0.04190058 -0.7054739 -0.058961563 -0.735415
-0.19179377 0.85741264 0.7261213 0.15724826 0.11664922 0.25002268 0.06460363 0.05378686
-0.024955573 -0.19468985 -0.26055533 -0.31377506 1.1694144 -0.096711785 -0.02965066 -0.083401054
0.69173604 -0.016585078 -0.20009932 -0.02556751 -0.12961982 0.57486373 0.49069032 -0.027870027
-0.12998618 -0.15511325 0.17969738 -0.36524448 0.1640003 0.8075346 0.8517079 0.22462337
0.11182359 0.43844974 -0.5762642 0.042039957 -0.18063648 -0.17950642 0.4417603 1.2786438
0.13442665 0.29481667 -0.12310208 0.020077517 0.29360265 -0.03589972 0.099178284 0.104168266
0.006423192 0.82983017 0.5384487 -0.16987266 -0.08473642 -0.2289759 1.0629867 1.0094197
-0.04226207 0.23817432 0.31093642 1.3335422 0.15068428 0.18626767 -0.15567079 -0.2305387
-0.072563894 -0.06799057 -0.45572186 0.17328942 -0.26092082 -0.07778421 0.38712206 0.75409025
-0.040423386 0.35861713 0.10104079 0.04591578 -0.005617516 -0.037600737 -0.1509771 0.09195174
0.079070054 1.0081722 -0.116827145 0.073140964 -0.64130646 0.1767546 -0.2608196 0.2588098
0.4909251 0.14730233 -0.1354691 0.13060367 -0.29934683 -0.43545574 -0.27869123 0.1433431

coefficient1 f4 [128, 64]
00000000: e1e6 533e b272 9b3d fddb 1ebe 0000 0000
00000010: a666 dc3c 76c9 c8bd 36a7 1abe 5e7e 44be
00000020: 084e 543e 130d d93c 8459 8dbd 2270 adbd
00000030: 5489 c0bd 2d6d ac3d 4d56 b43d 52c4 fabd
00000040: 3ea2 0abe 5e75 20be ed99 0c3d f2ae eb3d
00000050: eb78 08be 15ff 3bbe 4fbc 1bbe 0490 363e
00000060: c528 a1bd 37b5 653d 3858 d23c c0e4 31bd
00000070: 084e 94bc 3167 1abe 1dbb 5a3d 0000 0080
00000080: 0ae1 163c be9f 0cbd 8726 13be 0000 0000
00000090: 9fa3 2c3e 52fc 07be 0952 313e 4b9b 553c
000000a0: 9815 76bc 0000 0000 fbdb d23d 7f00 813c
000000b0: 3c1c 34be 4ede a8bd 03e0 1d3e 8e36 0bbe
000000c0: e4d3 7dbd 3813 9fbc 6427 32bd 722a 813c
000000d0: 1060 f33d 0000 0000 fc23 14b7 5691 12be
000000e0: dcf5 203e fd00 853d f166 89bd 3cb4 b63d
000000f0: fa3e e43d 969e 8f3d 9740 013e 9172 e8bd
00000100: edde fa3d 8e14 1abb e366 b53d 0000 0080
00000110: 6520 bb3d f3db 5f3d 1af3 fcbd fedd 913b
00000120: a72d 303e 85b7 253e 51d3 2fbe 7ce2 06be
00000130: ffc3 11be 23b5 c23d 9bb7 003e d9b7 e4bd
00000140: 264e 0d3c a895 0a3e 44f9 963d 8776 df3c
00000150: 802c ba3c 52cc 9d3c e64a 9ebd df09 063d
00000160: f306 773d 3195 fb3d 000f 583d f253 9c3d
00000170: aa9d 9dbc 2066 d7bc ab73 28be 0000 0000
00000180: 47eb 8e3d 3304 473e 2714 dbbd a811 1cbd
00000190: 032a e83d c5ac c8bd ecaf ec3c 3824 993d
000001a0: 8ab2 c53c 0000 0080 4bf9 6fbd 43b3 fb3d
000001b0: 9e21 8a3c 9d5d 2dbe fb88 a73d 5f85 2fbe
000001c0: 29b7 983d ff46 a7bc 59e5 463e 26c3 9dbc
000001d0: 1db1 8bbd 0000 0080 e5d8 a1bc 0cd9 f23d
000001e0: 9efa 293e b097 1bbd f36e 05bd 449a 9e3d
000001f0: 4d16 e23d 2f26 ef3c 81cf 51bd ecad 10bd
00000200: 0000 0000 0000 0000 0000 0000 0000 0000
00000210: 0000 0000 0000 0080 0000 0000 0000 0000
00000220: 0000 0000 0000 0080 0000 0000 0000 0080
00000230: 0000 0080 0000 0000 0000 0000 0000 0080
00000240: 0000 0000 0000 0080 0000 0000 0000 0000
00000250: 0000 0080 0000 0000 0000 0000 0000 0080
00000260: 0000 0000 0000 0000 0000 0000 0000 0000
00000270: 0000 0000 0000 0080 0000 0080 0000 0000
00000280: 0000 0000 0000 0080 0000 0080 0000 0000
00000290: 0000 0000 0000 0000 0000 0000 0000 0000
000002a0: 0000 0000 0000 0000 0000 0000 0000 0080
000002b0: 0000 0080 0000 0000 0000 0080 0000 0080
000002c0: 0000 0000 0000 0080 0000 0080 0000 0080
000002d0: 0000 0000 0000 0000 0000 0080 0000 0000
000002e0: 0000 0080 0000 0080 0000 0000 0000 0000
000002f0: 0000 0080 0000 0080 0000 0000 0000 0080
00000300: 3716 8ebd f997 0bbe 0000 0080 0000 0000
00000310: c262 dfba 9834 ac3d 3fd9 b43d 0000 0080
00000320: ad34 3ebc a3ff b6bd 1eb7 a93d 24de 423d
00000330: bb97 1c3e 9d78 44be b30a 17be 95d2 a8bd
00000340: 558b 99bd 268f dbbc d73f 0a3e 08a5 a0bd
00000350: 8979 383d 3d57 d13d 0000 0080 1f21 7d3d
00000360: 0000 0080 a0b4 dabc e5d8 1bbe d4ef 15be
00000370: 4e9f bb3b 34b6 0ebe faa6 65bc 0000 0000
00000380: e7d1 8abd 2076 ff3d d51b 2dbe e26e 483d
00000390: d85a 163e c7cb de3c d51a 323e fc4c 38be
000003a0: 9bcc 43bd 0000 0080 9c8a 973d 5942 343e
000003b0: fab5 b0bd 7184 5b3d d456 f3bd 517d 093d
000003c0: 1336 debc 0000 0000 b229 cb3c 8e01 46bd
000003d0: 029a b2be 0000 0080 9c63 44bc 73d5 bbbd
000003e0: de80 c53d debd 613c 3c49 a33c 5138 05be
000003f0: 7289 e83d b105 9f3d 0000 0080 a525 883d
0.20693542 0.07590236 -0.15513606 0.0 0.026904415 -0.098040506 -0.15102848 -0.1918883
0.20732892 0.026495492 -0.069018394 -0.08468653 -0.09401193 0.08419261 0.08805523 -0.122444764
-0.13538453 -0.15669772 0.034326483 0.115079775 -0.13327377 -0.18359025 -0.15208553 0.17828375
-0.07869104 0.056081023 0.025676832 -0.043431044 -0.018103614 -0.15078427 0.0534011 -0.0
0.009208927 -0.03433203 -0.14370166 0.0 0.16859291 -0.13279846 0.1731645 0.013037513
-0.015019797 0.0 0.10295864 0.015747307 -0.17588896 -0.08245526 0.15417485 -0.1359503
-0.061969653 -0.019418344 -0.043494597 0.01576731 0.11883557 0.0 -8.829866e-06 -0.14313254
0.15718788 0.06494329 -0.06709088 0.08921096 0.11144824 0.0701267 0.12622295 -0.11349977
0.12249551 -0.0023510787 0.08857515 -0.0 0.09137038 0.05465312 -0.123510554 0.0044515124
0.17204915 0.16183288 -0.17170455 -0.13172334 -0.14234923 0.09507205 0.1257004 -0.11167879
0.008624589 0.13533652 0.073717624 0.027278198 0.022726297 0.019262467 -0.077291295 0.032724258
0.06030936 0.122843154 0.05274868 0.07633199 -0.01924022 -0.026293814 -0.16450374 0.0
0.06978469 0.19435196 -0.10697203 -0.038102776 0.11336138 -0.09798578 0.02889248 0.07477611
0.024132986 -0.0 -0.058587354 0.12290051 0.016861733 -0.16930242 0.08180424 -0.17140721
0.0745681 -0.020419596 0.19423427 -0.019258093 -0.06820891 -0.0 -0.019756744 0.11857805
0.16599509 -0.037986457 -0.032576513 0.077442676 0.1103941 0.029193012 -0.05122328 -0.035322115
0.0 0.0 0.0 0.0 0.0 -0.0 0.0 0.0
0.0 -0.0 0.0 -0.0 -0.0 0.0 0.0 -0.0
0.0 -0.0 0.0 0.0 -0.0 0.0 0.0 -0.0
0.0 0.0 0.0 0.0 0.0 -0.0 -0.0 0.0
0.0 -0.0 -0.0 0.0 0.0 0.0 0.0 0.0
0.0 0.0 0.0 -0.0 -0.0 0.0 -0.0 -0.0
0.0 -0.0 -0.0 -0.0 0.0 0.0 -0.0 0.0
-0.0 -0.0 0.0 0.0 -0.0 -0.0 0.0 -0.0
-0.06937831 -0.13632192 -0.0 0.0 -0.0017042982 0.08408469 0.08830499 -0.0
-0.011609239 -0.089354776 0.0828688 0.04757513 0.15292256 -0.19186635 -0.14750175 -0.0824329
-0.074972786 -0.026801657 0.13500915 -0.07843977 0.04503778 0.102217175 -0.0 0.061799165
-0.0 -0.026697457 -0.15219457 -0.14642268 0.0057257777 -0.13936692 -0.014016861 0.0
-0.06778317 0.124737024 -0.16905148 0.04893387 0.14683092 0.027196778 0.17393048 -0.17998117
-0.04780255 -0.0 0.073994845 0.17603435 -0.08628459 0.053593103 -0.118817955 0.033566777
-0.027125394 0.0 0.024800155 -0.048341326 -0.34883124 -0.0 -0.011986639 -0.091715716
0.0964372 0.013778178 0.019932382 -0.13009764 0.113543406 0.077647574 -0.0 0.06647805

intercepts1 f4 [1, 64]
00000000: 187e 53bf 252e e83c 42f4 9abd 139a 95bd
00000010: 3b6b 293d d54a 28bd 051e d7bd 9bb2 9cbd
00000020: 3306 adbd ba25 8b3e b960 1fbe caaa 143e
00000030: 51ab 423e 930c 5b3f 72df 0bbe ae76 e3bd
00000040: 41b8 de3d b144 f53e e08e ec3d 1c71 e83c
00000050: a571 003f 2374 163f dbfe 30be de36 5e3f
00000060: 7f5e b03d 46ce e63e ebc4 883e 1f78 843d
00000070: 3198 0c3e a421 9bbd 51e3 0e3e 05ec 2fbe
00000080: 0768 543e ba20 1f3f 7a0f 003f 84f5 b8bd
00000090: 65dd 50be 8115 883d fb76 163e efca 00be
000000a0: 4a93 b13d 31df fbbd e874 0c3e ab7c 393f
000000b0: 75ba 5a3d e16d 753e f697 74be 6673 343f
000000c0: 74b5 de3d 4d0c f53d 4837 713f e400 383f
000000d0: 3386 0d3f 37f5 96bd b41a 2fb9 7982 febd
000000e0: a909 393d c79d 55be 5e93 debd 05e5 f23e
000000f0: e14e 1b3d cd39 7c3e e42a e5bd b070 043e
-0.8261428 0.028342316 -0.0756612 -0.07304778 0.04136203 -0.04108699 -0.10503773 -0.07651254
-0.08448448 0.2717722 -0.1556424 0.14518276 0.19010665 0.8556606 -0.13659456 -0.11106621
0.108749874 0.4790397 0.11550689 0.028374247 0.5017341 0.5877096 -0.1728472 0.8680247
0.08611774 0.4507925 0.26712736 0.06468224 0.13729931 -0.07574776 0.13953902 -0.17179878
0.20742808 0.6215931 0.50023615 -0.090312034 -0.20396955 0.066447265 0.14693825 -0.12577413
0.08670671 -0.1229843 0.13716471 0.72455853 0.053400476 0.23967697 -0.23886093 0.70488584
0.10874453 0.11965237 0.9422498 0.7187636 0.55282897 -0.0737099 -0.00016699248 -0.124272294
0.04517523 -0.20860969 -0.10867952 0.47440353 0.03791702 0.24631424 -0.11189821 0.12933612

coefficient2 f4 [64, 32]
00000000: 9ef6 95bd 0000 0000 aa10 b63d 62a3 283d
00000010: 4665 00bd efe6 9ebd 88ac 2c3e d191 f53d
00000020: 073e 3fbe d2f9 0fbe 96b9 c83c 5aa7 7dbe
00000030: 57f7 86be 80a7 acbe e4ff 10be 3f3c c6bd
00000040: 0000 0000 24f5 e8bd 39d6 db3d 52e7 6f3d
00000050: 9b2d c73d 90a9 8e3e a8ae e23e 500c 8abd
00000060: 8eb9 583e 8003 7abe 9a82 0d3d 1210 003e
00000070: 0000 0000 b12a 383e a88e ad3c 0000 0000
00000080: 2b3d 593d c223 863c 5426 9b3d ced3 50bc
00000090: 5d14 7ebe bffd 2e3d d883 e53d 02ca 28bd
000000a0: cd8e 093e 9269 a0bd eb78 1ebe d0ac 2cbe
000000b0: f018 71bd 6fec 1e3e d57b 2d3e caca 8bbd
000000c0: a712 1d3d 5478 ed3d 180c 09be c8a0 34be
000000d0: 1e36 7f3e 76a8 443d 3666 6d3e fb09 11be
000000e0: 9725 c43d dfbb 08be 2a7c eabd 7506 783c
000000f0: 0000 0000 b6e3 2fbe d19b f6bd 2210 78be
00000100: a559 b73d 0000 0080 bf23 22be 0000 0000
00000110: 0000 0080 0000 0000 0000 0080 2d99 d63d
00000120: 0e00 58be 9dc1 d4bd 1836 293e cb9f c43d
00000130: b3f4 3dbe 9443 ce3d e9cc 933a 0000 0080
00000140: 0000 0000 3a8b a23d 0000 0000 0000 0080
00000150: 0000 0000 6cf6 b6bc 3482 58be a73d 2fbe
00000160: de84 2fbe 2fe0 843d 8e4c f53c 0000 0080
00000170: 0000 0000 0000 0000 55a2 3c3e 0000 0000
00000180: 0000 0000 0000 0080 0000 0000 0000 0000
00000190: 0000 0080 0000 0080 0000 0080 0000 0080
000001a0: 0000 0080 0000 0080 0000 0080 0000 0080
000001b0: 0000 0000 0000 0080 0000 0000 0000 0000
000001c0: 0000 0080 0000 0080 0000 0000 0000 0000
000001d0: 0000 0080 0000 0080 0000 0000 0000 0080
000001e0: 0000 0000 0000 0000 0000 0080 0000 0080
000001f0: 0000 0080 0000 0000 0000 0080 0000 0080
00000200: 7898 213e 0000 0080 ade5 843d 7a38 763c
00000210: 7738 b23d b0f9 dabc 0518 1fbd 82aa 92bd
00000220: 4ab0 c53d bbca 7f3e cb62 2d3e 319d 5a3e
00000230: b7bc 0dbe 10e7 4e39 eb73 bb3d b19d 08be
00000240: 4773 81be 8b77 623e 1c3c 05be add9 393e
00000250: c411 ec3d 3f25 103e dbf2 20be 5003 d93d
00000260: e042 7b3c df31 0dbe 1a6f 99bd 7252 b8bd
00000270: 0000 0080 8eba 0fbe da13 083e e4e6 2fbe
00000280: 7bda 68be 12d6 4f3d 6de6 793e ac97 aebd
00000290: cc19 50be a697 c23c c672 593e 6df0 093e
000002a0: 177e 8b3d 4d52 e3bd 12bd 063c 8a27 56be
000002b0: 8692 c43d f62b 9b3d 4702 753e 83f2 02be
000002c0: 53f3 7cbe 88d0 f13c 7b4d c23d de89 0a3e
000002d0: 23e8 f1bd bb74 04be 7279 81bb d10e 05be
000002e0: 63bd 303e 0587 e3bb 8016 203e 7ecf 7a3d
000002f0: 0000 0080 4638 bdbd afc9 393e a3ff f9bd
00000300: d58a 053d 0000 0080 dc5e 24bb 43d4 cdbd
00000310: 5e8a 04be 14f3 633e f42b 26be 38bc 093e
00000320: 546b 803e 3449 8abe 4c71 b13d de37 01be
00000330: 9d87 62be 91df 7e3e 6cb4 673e 6819 81be
00000340: 34b8 1a3d 78e4 183c fbd9 353e 6d34 5fbe
00000350: 3853 f23d e312 a53d 35fc 993d 8289 563e
00000360: fb92 1b3e e4bb 61be 1bde c1bb ad10 0bbd
00000370: 0000 0080 7518 0abd 73b9 1dbd 8d1a 30bd
00000380: c48f 813e 737f 4dbe 300f 603e 0000 0080
00000390: 4b90 4d3d 6db9 213e ea87 abbd 1d7f 42bd
000003a0: fb93 02bd 3a04 19bd 2eac 4d3e a8d7 3c3e
000003b0: 4d4b 3abe 0000 0080 3470 b9bc 16cb 59be
000003c0: d19f 553d 56a5 28be 3ca3 7eba 2e2a 82be
000003d0: 38d4 eabd c098 9a3d e717 a8bc 532b 6e3e
000003e0: 472c 353e 479c 69bd e20a 5bbe c0bd 103e
000003f0: 0000 0080 e4ca 163e e9f9 5ebe 79fb 743e
-0.07322429 0.0 0.08889897 0.04117144 -0.031346582 -0.07758891 0.1686269 0.11990703
-0.18676005 -0.14060143 0.024502557 -0.24770871 -0.2636058 -0.33721542 -0.14160115 -0.0967946
0.0 -0.11374882 0.10734219 0.058570214 0.097254954 0.2786374 0.44273877 -0.0674063
0.21164533 -0.24415398 0.03454838 0.1250613 0.0 0.17985035 0.021186188 0.0
0.05303685 0.016374473 0.0757567 -0.012745811 -0.24812455 0.04272246 0.11206788 -0.041208275
0.1343338 -0.07832636 -0.15475814 -0.16862798 -0.058861673 0.1551988 0.1694177 -0.06825788
0.038347866 0.115952164 -0.1338352 -0.17639458 0.24922988 0.04801222 0.23183522 -0.14163963
0.09577482 -0.13352917 -0.11449464 0.015138258 0.0 -0.17176709 -0.12041438 -0.24224904
0.08952645 -0.0 -0.15833949 0.0 -0.0 0.0 -0.0 0.10478435
-0.21093771 -0.10388491 0.16524541 0.096007906 -0.18550377 0.10071483 0.0011276278 -0.0
0.0 0.079367116 0.0 -0.0 0.0 -0.0223343 -0.21143419 -0.17113362
-0.17140529 0.06488072 0.02994373 -0.0 0.0 0.0 0.184213 0.0
0.0 -0.0 0.0 0.0 -0.0 -0.0 -0.0 -0.0
-0.0 -0.0 -0.0 -0.0 0.0 -0.0 0.0 0.0
-0.0 -0.0 0.0 0.0 -0.0 -0.0 0.0 -0.0
0.0 0.0 -0.0 -0.0 -0.0 0.0 -0.0 -0.0
0.15780818 -0.0 0.0648912 0.0150281135 0.08702176 -0.026730388 -0.038841266 -0.07161428
0.09652765 0.2497968 0.16932218 0.21349026 -0.1384152 0.00019731768 0.09152969 -0.13341404
-0.25283262 0.22115915 -0.13011211 0.18149443 0.11526826 0.14076708 -0.15717642 0.10596335
0.015335768 -0.13788556 -0.07491894 -0.090001 -0.0 -0.14036009 0.13288823 -0.17177922
-0.22739594 0.050741263 0.24404307 -0.08525023 -0.2032234 0.023753952 0.21235189 0.13470621
0.06811159 -0.11099682 0.008223789 -0.2091352 0.0959826 0.07576744 0.2392665 -0.12787823
-0.24702196 0.02951838 0.094874345 0.13529155 -0.11811855 -0.12935154 -0.003951245 -0.12993933
0.17259745 -0.006943586 0.15633583 0.061233036 -0.0 -0.09239249 0.18143342 -0.12206962
0.032603104 -0.0 -0.0025080955 -0.10050251 -0.12943408 0.22260696 -0.16227704 0.13450706
0.25081885 -0.27008975 0.08664188 -0.12618968 -0.22122045 0.24889971 0.22627419 -0.25214696
0.037773326 0.009331815 0.17758934 -0.21797343 0.11832279 0.08060243 0.07518808 0.20950893
0.15192787 -0.22044331 -0.0059163696 -0.03395145 -0.0 -0.03371473 -0.038506936 -0.04299407
0.25304997 -0.2006815 0.21880794 -0.0 0.050186437 0.1579339 -0.08375533 -0.047484506
-0.031879406 -0.037357546 0.20085213 0.18441641 -0.18192787 -0.0 -0.02263651 -0.21268877
0.052154366 -0.1646932 -0.0009713655 -0.25422806 -0.11466259 0.07548666 -0.02051921 0.23258714
0.17692672 -0.057033803 -0.2139087 0.14134884 -0.0 0.14725834 -0.2177502 0.23924054

intercepts2 f4 [1, 32]
00000000: ef95 a43b 9fa2 353e 5aab 453e fecf c0be
00000010: 8670 7cbd 635b 07be d1b1 eebc f080 853d
00000020: c631 843d 433c 883f 9c1e e83d a4f3 533e
00000030: ae20 073e ae52 663f 0e36 f3bc 9d86 cc3d
00000040: 3508 fdbd 64af a73e 4d0b 283e 07bf 63be
00000050: f1a7 9abe 0815 733d 1a23 ab3c bb9e 173f
00000060: 7588 48be 7210 1d3e 50ec 5b3e 9446 d9bd
00000070: 7397 b0bd e45e d53d 48f6 c8be 2aef 6f3e
0.0050227563 0.17737816 0.19303647 -0.37658685 -0.06163075 -0.13218455 -0.029137524 0.065187335
0.06454806 1.064339 0.11333963 0.2069841 0.1319606 0.8996991 -0.029688861 0.09986613
-0.12355081 0.32751 0.16410561 -0.2224084 -0.30206254 0.05934623 0.020890761 0.5922658
-0.19583304 0.15338305 0.21476865 -0.10609165 -0.08622637 0.104184896 -0.39250398 0.23431078

coefficient3 f4 [32, 1]
00000000: 10d9 1e3e 8bce a4bc ea49 d83d f94f 24be
00000010: 069d 37be e926 a3be a966 a8be 80dc f1bd
00000020: efc7 6d3e 550e 8b3e 4139 a7be b0e1 b23e
00000030: 1cfa bd3d 580c 0e3f 4250 1c3e f4ed 89be
00000040: 9ea5 83bc e09a 0c3e 42ef c6be 0b6c cfbe
00000050: b4a0 a5be 846e 4abe 11ff 41bd f403 7f3d
00000060: 482f 97be 120e 1f3e 9603 b43d 9fb5 3dbe
00000070: 5135 cb96 08b2 b1be 029e 73bd cef0 92be
0.1551249 -0.020118019 0.10560973 -0.16046132 -0.17930993 -0.31865624 -0.32890823 -0.11809635
0.232208 0.27159372 -0.3266087 0.3493781 0.0927622 0.55487585 0.15264991 -0.26939356
-0.016070183 0.13730955 -0.38854414 -0.40512118 -0.3234917 -0.19768721 -0.04736239 0.06225963
-0.2952826 0.15532711 0.087897465 -0.18526314 -3.2830066e-25 -0.3470614 -0.05947686 -0.28699344
