Match_Algorithm_System/match_ML/models/neural_network.onnx (onnx, 49738 bytes, 7 tensors)

coefficient f4 [13, 128]
0	0xbd1f5c7a	-0.038906552
1	0x3e8b1953	0.27167758
2	0x27f2c55e	6.738248e-15
3	0x3d1904a6	0.03735795
4	0xb0e34cdc	-1.6538269e-09
5	0x3e1be30a	0.15223327
6	0xbe318303	-0.17335133
7	0x3e0383a3	0.12843184
8	0x3e536833	0.20645218
9	0x3d90a6c0	0.07063055
10	0xbe21de47	-0.15807448
11	0x3e617b48	0.22019684
12	0x3e03b8c9	0.12863459
13	0xbdd75215	-0.10513703
14	0xbe1495ea	-0.14510313
15	0x3cee0c55	0.029058615
16	0xbdc236dc	-0.0948312
17	0xbbf2e4e0	-0.007412538
18	0xbcac6c2b	-0.021047672
19	0xbdd78cd0	-0.10524905
20	0x3d469240	0.04847932
21	0xbe29c2d5	-0.16578229
22	0xbdda2e97	-0.106534176
23	0xbdcc286c	-0.09968647
24	0xbcf165d8	-0.029467508
25	0x3dd93952	0.10606636
26	0xbdfeb5ae	-0.124369964
27	0xbc4ab7db	-0.012372936
28	0x3cde481c	0.027133994
29	0xbe43beb0	-0.1911571
30	0x3d5b81f5	0.053590734
31	0xbe09a380	-0.13441277
32	0xbe70f4f8	-0.23530948
33	0x3f254687	0.6456074
34	0x3e446dc2	0.19182494
35	0x3e4497f3	0.19198589
36	0xbdccea58	-0.10005635
37	0xbe26b438	-0.16279685
38	0x3d9dba65	0.077015676
39	0xbcc1fa72	-0.023678992
40	0x3e307a4d	0.17234154
41	0xbc8468eb	-0.01616331
42	0xbe5299fa	-0.2056655
43	0x3e012232	0.126107
44	0x3ead1986	0.33808535
45	0x3d2d126f	0.042253908
46	0xbd648224	-0.055788174
47	0xba2b77dc	-0.0006540993
48	0x3db50514	0.08838859
49	0xbca1fc73	-0.019773697
50	0x3bb925aa	0.005650242
51	0x3dc7cc23	0.09755733
52	0x3e45fb7a	0.19334212
53	0x3e8c7e5b	0.27440152
54	0x3d5cd50f	0.053914126
55	0x3e3843bc	0.17994589
56	0xbe34fa51	-0.17673613
57	0xbe0091f7	-0.12555681
58	0x3e096877	0.13418756
59	0xbd4ea137	-0.050446715
60	0xbcdeecc6	-0.027212512
61	0x3e8b36d2	0.27190262
62	0x3f0bfb86	0.5468067
63	0xbda28b2a	-0.079367
64	0xbca45773	-0.02006123
65	0x3d9d440d	0.07678995
66	0xbdaaa546	-0.08332305
67	0x3ee33173	0.44373664
68	0xbe483b01	-0.19553758
69	0x3f1d4763	0.6143705
70	0x3e401b2d	0.18760367
71	0xbdc2f31e	-0.09519027
72	0xbe4740ad	-0.19458266
73	0x3e20e9f3	0.15714245
74	0x3dbc5d22	0.09197451
75	0x3df5e2d0	0.12006152
76	0x3df5bc96	0.119988605
77	0xbe4062ea	-0.18787733
78	0xbd03155d	-0.032002795
79	0xbe1e0c9c	-0.15434498
80	0x3e115434	0.14192277
81	0x3da23728	0.079206765
82	0x3e6f2f72	0.23357943
83	0xbe506514	-0.20351058
84	0xbeb1a9ab	-0.3469976
85	0xbd544913	-0.0518275
86	0x3efbb6ad	0.49162808
87	0x3f15f3d4	0.5857518
88	0x3e14c7d8	0.1452936
89	0xbcaeefc3	-0.021354562
90	0xbe1a7cda	-0.1508669
91	0x3ec4b158	0.38416553
92	0x3e70669d	0.23476644
93	0x3d05d096	0.032669626
94	0x3dd958ae	0.106126174
95	0xbd25811d	-0.040406335
96	0xbb6268da	-0.003454736
97	0xbda96a2b	-0.08272203
98	0xbe38aed1	-0.18035437
99	0x3d8bb1e6	0.06821041
100	0xbe6996b5	-0.22811396
101	0x3d8d83b1	0.06909884
102	0xbd8a8869	-0.067642994
103	0x3ebf865b	0.37407193
104	0x3dba3650	0.090923905
105	0x3e634962	0.22195962
106	0xbceac403	-0.028657919
107	0x3df88307	0.121343665
108	0xbdb17c60	-0.08666301
109	0xbe4ec88b	-0.20193689
110	0xbdcfce70	-0.10146797
111	0xbe0088ed	-0.12552233
112	0x3e30ca19	0.17264594
113	0x3df795e6	0.12089138
114	0x3ef035a1	0.46915916
115	0x3e0ca43e	0.13734528
116	0x3dc47b05	0.095937766
117	0xbc863aac	-0.016385399
118	0x3e10d065	0.14141996
119	0x3d21d6bb	0.039511424
120	0x3e279aa9	0.16367592
121	0x3e233d23	0.1594129
122	0xbddc9640	-0.107708454
123	0xbe1b4515	-0.15163071
124	0xbe012a9e	-0.12613913
125	0xbdc38116	-0.095461056
126	0x3dcbb9ed	0.09947572
127	0x3e2f0dee	0.17095158
128	0xbe42b856	-0.19015631
129	0x3d7c333b	0.061572295
130	0x8f6c6f70	-1.16571604e-29
131	0xbdfb3927	-0.1226676
132	0xb2887946	-1.5887633e-08
133	0x3e326846	0.1742259
134	0x3e463947	0.19357787
135	0xbdc7c09d	-0.09753535
136	0x3e246c69	0.1605698
137	0x3da8470a	0.082166746
138	0xbcdbf01c	-0.026847892
139	0x3e645bbe	0.22300622
140	0x3e4539e5	0.19260366
141	0xbdbff30f	-0.093725316
142	0xbc4930f1	-0.012279735
143	0xbc204cae	-0.009783907
144	0xbdd8e8ce	-0.10591279
145	0xbe56c195	-0.20972283
146	0x3d0f6854	0.035011604
147	0xbc452a1f	-0.012033968
148	0xbe2ffa25	-0.17185266
149	0xbdd36430	-0.103218436
150	0x3e182cb7	0.14860807
151	0xbd8048ae	-0.062638626
152	0xbe21ea17	-0.15811954
153	0xbc4d43cb	-0.01252837
154	0x3e4b9aa3	0.19883208
155	0xbe018ddc	-0.12651771
156	0x3d80f3ff	0.062965386
157	0x3dcc0035	0.09960977
158	0xbdc6fb49	-0.097158976
159	0x3ddc840a	0.10767372
160	0xbdd6aa92	-0.104817525
161	0x3ece2426	0.40261954
162	0x3d27290c	0.04081063
163	0x3d3138b2	0.04326696
164	0xbe408469	-0.1880051
165	0x3e1ae474	0.1512621
166	0xbd8af658	-0.067852676
167	0xbdff89c3	-0.12477448
168	0x3e089a09	0.1334001
169	0x3cb563ec	0.022142373
170	0x3d7ad55e	0.06123864
171	0xbe593d01	-0.21214677
172	0x3ee50a19	0.44734266
173	0xbe067f02	-0.13134387
174	0x3da45f22	0.08025958
175	0xbe0d6781	-0.13809015
176	0x3e1da64e	0.15395471
177	0xbc905cc7	-0.017622365
178	0x39a00da0	0.0003052773
179	0xbe2dc421	-0.16969348
180	0xbd5db0f4	-0.054123834
181	0xbd4e1b8f	-0.05031925
182	0x3e3aac2e	0.18229744
183	0x3e27100b	0.16314714
184	0xbddfdecd	-0.10931168
185	0x3d92b5d4	0.07163587
186	0x3eeb6d3a	0.4598177
187	0x3d2fec33	0.042949867
188	0x3cd427c7	0.025897874
189	0x3e7b116f	0.24518369
190	0x3e36eb7b	0.17863266
191	0x3e13300d	0.14373799
192	0x3bc05962	0.0058700303
193	0x3df3ac77	0.118981294
194	0xbca45058	-0.020057842
195	0x3e90c2dd	0.2827367
196	0x3d9e3e69	0.077267475
197	0x3f0cec02	0.5504762
198	0x3e3e9d3c	0.18614668
199	0x3ddc6fb0	0.1076349
200	0x3d910021	0.07080103
201	0xbe29f3f4	-0.16596967
202	0xbe0979a8	-0.13425314
203	0x3e2cd906	0.16879663
204	0x3d530edb	0.05152784
205	0xbe5c0c48	-0.2148906
206	0xbde8186e	-0.113327846
207	0x3d8fe7ca	0.07026632
208	0xbe5c275b	-0.21499388
209	0xbe00e57d	-0.12587543
210	0x3e6e032a	0.23243394
211	0x3d768ac8	0.060190946
212	0xbe453da3	-0.19261794
213	0xbdbc338e	-0.09189521
214	0x3ed4a8f6	0.41535157
215	0x3ed362fe	0.41286463
216	0xbdb5c22c	-0.08874926
217	0x3dbff486	0.09372811
218	0x3d79010d	0.060792018
219	0x3ed8a456	0.42312878
220	0x3e20de38	0.1570977
221	0x3d35db31	0.04439849
222	0xbe2e8405	-0.17042549
223	0xbdba5a28	-0.09099227
224	0xbde49e98	-0.11163062
225	0xbdfd0c22	-0.1235583
226	0x3e6a842e	0.22901985
227	0x3e0f58dc	0.13998741
228	0x3e0ff337	0.14057623
229	0x3d86ba24	0.06578472
230	0x3e052cfc	0.13005441
231	0x3e8cffab	0.2753881
232	0x39e90c58	0.0004445042
233	0x3e2e3117	0.17010914
234	0xbde21f25	-0.110410966
235	0x3ddc03a6	0.107428834
236	0xbdd5f3b4	-0.10446873
237	0xbe5ba0dd	-0.21448083
238	0x3d211b17	0.039332476
239	0xbdf5d24f	-0.12003004
240	0x3e355539	0.17708291
241	0x3e332d67	0.17497788
242	0x3eee0894	0.4649092
243	0xbd93c1f1	-0.07214726
244	0xbe819ab6	-0.25313348
245	0x3b8b74c6	0.004255864
246	0xbd5780c4	-0.052613035
247	0x3e6c1a32	0.23056868
248	0x3e9883e9	0.2978814
249	0x3e138977	0.14407907
250	0xbddfd223	-0.10928752
251	0xbd1ff16c	-0.039048597
252	0x3e03896f	0.12845396
253	0xbe094bb5	-0.13407786
254	0xbe296c86	-0.16545305
255	0x3d379ae1	0.04482544

intercepts f4 [1, 128]
0	0x3e59b5b3	0.21260719
1	0x3eeb2c74	0.45932353
2	0xbdf64a8d	-0.12025938
3	0x3e49fb57	0.19724785
4	0xbe2212e1	-0.15827514
5	0x3f339b6f	0.7015905
6	0xba0f1dc7	-0.0005459454
7	0x3dd11f4e	0.10211049
8	0x3f1deac0	0.61686325
9	0x3d9f2fa8	0.077727616
10	0x3e9de2ee	0.30837196
11	0xbad4093b	-0.0016177067
12	0xbe597906	-0.21237573
13	0x3c6ad19d	0.014332202
14	0xbe124114	-0.14282638
15	0x3e087429	0.13325562
16	0xbdc56fb4	-0.09640446
17	0x3e1f2232	0.15540388
18	0x3d8a3b65	0.0674961
19	0x3d93d3fc	0.07218167
20	0xbe0f6b89	-0.14005865
21	0x3dfd53cc	0.123694986
22	0x3df7d2c9	0.12100751
23	0xbc597c87	-0.013274319
24	0x3d4c902f	0.04994219
25	0x3dded660	0.108807325
26	0xbdd38cf0	-0.10329616
27	0xbd09322d	-0.033495117
28	0xbd6b3be3	-0.05743016
29	0xbdd33c92	-0.10314287
30	0xbd38c415	-0.045108873
31	0xbe894330	-0.26809072
32	0xbeb3eecb	-0.35143122
33	0x3f2e2f12	0.68040574
34	0x3e3d88e9	0.18509258
35	0x3e5e643f	0.21717928
36	0x3e10fb1a	0.14158288
37	0x3d0dcadd	0.034617294
38	0xbdb355e2	-0.08756615
39	0xbcb64a9b	-0.022252372
40	0x3f402364	0.75054
41	0xbe3e7080	-0.18597603
42	0x3b2951ef	0.002583619
43	0xbe771954	-0.24130756
44	0x3f597d56	0.8495687
45	0x3c1d5d7c	0.009604808
46	0xbdbe8c22	-0.09304072
47	0xbe227b64	-0.15867382
48	0x3eaa8b55	0.33309427
49	0xbd09ad2f	-0.033612426
50	0xbe4df1a2	-0.20111707
51	0x3e23b198	0.15985715
52	0xbe2bd0d7	-0.16778885
53	0x3ec14b71	0.3775287
54	0x3e852802	0.26007086
55	0xbd231b9e	-0.03982126
56	0xbe156794	-0.14590293
57	0xbe3628a3	-0.17788939
58	0x3f1bc984	0.60854363
59	0xbdd0c040	-0.10192919
60	0x3df4b3e6	0.119483754
61	0x3ef3992f	0.47577807
62	0x3f345a3a	0.70450175
63	0x3e34ad43	0.17644219
64	0x3de543ea	0.11194594
65	0x3e9a0250	0.3007989
66	0x3dfc00b7	0.12304824
67	0x3f6ba4c0	0.92048264
68	0xbd43e4d2	-0.047825642
69	0x3f53f614	0.8279736
70	0x3d800372	0.06250657
71	0x3ea924fa	0.33036023
72	0x3b64dec2	0.0034922813
73	0x3c0aeab7	0.008478812
74	0xbd89a125	-0.06720189
75	0x3d2ff6f4	0.042960122
76	0x3e0d190d	0.13779087
77	0x3dac6872	0.08418359
78	0x3dccec0c	0.1000596
79	0xbe13e62b	-0.14443271
80	0xbd18e7c0	-0.03733039
81	0x3dea055e	0.11426805
82	0x3ed8d59f	0.4235048
83	0xbe18b948	-0.14914429
84	0xbf005427	-0.50128406
85	0xbdc0c786	-0.09413056
86	0x3f3b8317	0.732469
87	0x3f4370d1	0.7634402
88	0xbe54fc86	-0.20799455
89	0xbdddfbdf	-0.10839056
90	0x3e6edeb4	0.23327142
91	0x3f3f0603	0.7461855
92	0x3f08adb3	0.53390044
93	0x3b7bb5fb	0.003840803
94	0xbe1eea7e	-0.15519139
95	0xbd9e962f	-0.07743489
96	0xbd30ff30	-0.043212116
97	0x3d0f11e5	0.034929175
98	0xbeac65b8	-0.33671355
99	0x3e940cac	0.28915918
100	0xbe5c28e7	-0.21499978
101	0xbd580020	-0.052734494
102	0x3dee49cf	0.116351716
103	0x3f1a24af	0.60212225
104	0xbe9ffa7a	-0.31245786
105	0x3ef63e22	0.4809428
106	0x3d8c1786	0.06840424
107	0x3e17b2c6	0.1481429
108	0x3e6a779f	0.22897194
109	0x3de95eb2	0.11395015
110	0x3d555f2b	0.052092712
111	0xbd9fe313	-0.07806983
112	0x3d957e85	0.07299522
113	0xbb93e2a5	-0.004513102
114	0x3f576665	0.84140617
115	0x3dde534f	0.108557336
116	0xbe98e287	-0.29860327
117	0x3e48d596	0.19612727
118	0xbdb0af27	-0.08627158
119	0x3dc07dd2	0.09398998
120	0x3ebe804f	0.37207267
121	0x3e044f3b	0.12920849
122	0xbcf34588	-0.029696241
123	0x3d368be8	0.04456702
124	0xbe54c6f3	-0.20779018
125	0xbe92bfab	-0.28661856
126	0xbe6b11ad	-0.22955962
127	0x3e285646	0.1643916

coefficient1 f4 [128, 64]
0	0xbc211fe8	-0.009834267
1	0x3d987dc0	0.0744586
2	0xbe428fb5	-0.19000132
3	0xb17b83c5	-3.660021e-09
4	0x3d53341f	0.05156338
5	0xbe1423bd	-0.14466758
6	0xbe264c20	-0.16239977
7	0xbe401381	-0.1875744
8	0x3e2a105e	0.16607806
9	0x3d40cf26	0.047072552
10	0xbd6cd12c	-0.05781667
11	0xbdb0e092	-0.086365834
12	0xbd84af5e	-0.06478761
13	0x3e075db1	0.13219334
14	0x3d9c453a	0.076303914
15	0xbe1b70cd	-0.15179749
16	0xbdda5635	-0.10660974
17	0xbe3a7ba7	-0.18211232
18	0x3d1ae55a	0.037816383
19	0x3dd5318e	0.104098424
20	0xbe460051	-0.19336058
21	0xbe3714a5	-0.17878969
22	0xbe254027	-0.16137753
23	0x3e2a8255	0.1665128
24	0xbdab1ee5	-0.08355502
25	0x3d93970e	0.07206546
26	0x3d1e2aab	0.03861491
27	0xbc122914	-0.008920927
28	0xbdd3e66b	-0.10346683
29	0xbe15edc9	-0.14641489
30	0x3d05dda7	0.032682087
31	0x28618660	1.2519147e-14
32	0x3d0dc216	0.034608923
33	0x3c8ed06e	0.017433371
34	0xb305f152	-3.1185955e-08
35	0x3e0f83f8	0.14015186
36	0x3dd4ba78	0.103871286
37	0xbda3a2b0	-0.079900146
38	0x3e2b3f7e	0.16723439
39	0x3ce27121	0.027641835
40	0x3c586bfe	0.013209341
41	0x248dba9a	6.146512e-17
42	0x3dd1d1d1	0.102450974
43	0x3bf32a26	0.007420796
44	0xbe1de633	-0.15419845
45	0xbda4abd0	-0.08040583
46	0x3e0d2ddd	0.13787027
47	0xbdd3471f	-0.103163
48	0xbd629e48	-0.05532673
49	0xbc980f07	-0.018561853
50	0xbd869697	-0.065716915
51	0xbb353f8d	-0.0027656287
52	0x3df10f64	0.11770514
53	0xa67c37df	-8.750578e-16
54	0xbca96d9e	-0.020682152
55	0xbe032a0f	-0.12809013
56	0x3e095136	0.13409886
57	0x3d7d59e3	0.0618533
58	0xbd69398b	-0.056939643
59	0x3de702e4	0.11279848
60	0x3dbfb7aa	0.09361203
61	0x3dec4133	0.11535873
62	0x3e068c15	0.13139375
63	0xbd946af2	-0.07246961
64	0x3d529ef1	0.05142111
65	0xbb37702c	-0.0027990444
66	0x3e01a260	0.12659597
67	0xa206b097	-1.8253872e-18
68	0x3dd34fc0	0.103179455
69	0x3d6e4c06	0.05817797
70	0xbe00cb05	-0.12577446
71	0x3b88b12a	0.00417151
72	0x3e33797e	0.17526814
73	0x3e24d7dd	0.1609797
74	0xbe2e58f2	-0.17026117
75	0xbe06b0cf	-0.13153385
76	0xbe102265	-0.1407562
77	0x3dba902c	0.0910953
78	0x3e01a990	0.12662339
79	0xbdd7677b	-0.10517784
80	0x3c5fe14a	0.013664553
81	0x3e0aa34f	0.1353886
82	0x3d944eac	0.07241568
83	0x3cd4ed95	0.025992194
84	0x3cc9b0c8	0.024620429
85	0x3c1feb29	0.009760656
86	0xbdab83dd	-0.0837476
87	0x3d1258cf	0.035729226
88	0x3d6596de	0.05605208
89	0x3df276a3	0.118390344
90	0x3d5379be	0.051629774
91	0x3dcc0ba2	0.09963156
92	0xbdf3e5ce	-0.11909066
93	0xbccb1100	-0.02478838
94	0xbe305307	-0.17219172
95	0xa58b69ae	-2.4184268e-16
96	0x3d8dd701	0.06925774
97	0x3e3b822c	0.18311375
98	0xb0db9a1e	-1.597815e-09
99	0xbcb005aa	-0.021487076
100	0x3de88e50	0.11355269
101	0xbdcfaca4	-0.101403505
102	0x3cd1f6d2	0.025630388
103	0x3d9adc46	0.07561545
104	0x3ce0789d	0.027401263
105	0xbdecde88	-0.11565882
106	0xbd6fbd38	-0.058530062
107	0x3df0d76a	0.11759837
108	0x3ca8c818	0.020603225
109	0xbe2dbf6c	-0.16967553
110	0x3da56003	0.080749534
111	0xbe31bc1c	-0.17356914
112	0x3d9b47db	0.07582065
113	0xbcabf224	-0.020989485
114	0x3e48df8a	0.19616523
115	0xbcecada4	-0.028891392
116	0xbd93017d	-0.07178018
117	0xae625f7f	-5.1471268e-11
118	0xbccd31ff	-0.025048254
119	0x3df34f21	0.11880327
120	0x3e2b090e	0.16702673
121	0xbd18dfaf	-0.037322696
122	0xbc8b4d45	-0.017004618
123	0x3dae3275	0.08505718
124	0x3df9b911	0.12193502
125	0x3ce85b09	0.028363721
126	0xbd446350	-0.047946274
127	0xbcd541ee	-0.026032414
128	0x1c3c81bc	6.237166e-22
129	0xb426768b	-1.550308e-07
130	0x13daac32	5.5200734e-27
131	0x9717e54a	-4.9080135e-25
132	0x2a50340b	1.8492167e-13
133	0xb11e0920	-2.2997213e-09
134	0x120468c0	4.178097e-28
135	0x0d06cc52	4.153788e-31
136	0x173a695f	6.023284e-25
137	0xb2342741	-1.0486304e-08
138	0x9186d4d7	-2.1272645e-28
139	0x8fb38212	-1.7700864e-29
140	0x8fd61f3d	-2.1114062e-29
141	0x93812577	-3.260112e-27
142	0x19d4da6d	2.2008508e-23
143	0x2b39c6bd	6.600101e-13
144	0x222df05d	2.357312e-18
145	0x2cb97b10	5.271679e-12
146	0x0a944f97	1.428182e-32
147	0xb1bf8c13	-5.574756e-09
148	0xb2761380	-1.4323518e-08
149	0x99caf9c5	-2.0987192e-23
150	0x2978e9f6	5.526999e-14
151	0x1f1be866	3.3014762e-20
152	0x29cc83bf	9.082274e-14
153	0x8cae3dd5	-2.6846159e-31
154	0x0fe6150d	2.268786e-29
155	0xae7dc841	-5.77034e-11
156	0x9a96e8a8	-6.241442e-23
157	0x901b448b	-3.0621164e-29
158	0xb14b2eb3	-2.9566933e-09
159	0xa8e57c40	-2.5477992e-14
160	0x9288154e	-8.588059e-28
161	0xa285fad8	-3.6315313e-18
162	0x3430a398	1.6450792e-07
163	0x3222949d	9.463432e-09
164	0x173a6b1c	6.023503e-25
165	0x11652f14	1.8079422e-28
166	0x16633a8b	1.8355387e-25
167	0x2989e0db	6.1230284e-14
168	0xb00332ad	-4.7729537e-10
169	0x9254daf8	-6.7165305e-28
170	0x2db1086d	2.0126312e-11
171	0x9499e2f7	-1.5538574e-26
172	0x108c9a20	5.545773e-29
173	0x11e0418f	3.5381372e-28
174	0xac101fa5	-2.0481197e-12
175	0x96c39370	-3.1596995e-25
176	0x99b94703	-1.9157233e-23
177	0xb384ec0f	-6.189668e-08
178	0xb3908b3d	-6.73085e-08
179	0x2d2c94ae	9.810082e-12
180	0x21cc9315	1.386251e-18
181	0x8ce07c30	-3.4587407e-31
182	0x9e431af0	-1.03287846e-20
183	0x326cffda	1.3795182e-08
184	0xa17fb01d	-8.6630445e-19
185	0x90ab5aca	-6.758749e-29
186	0x2f8ea13b	2.594421e-10
187	0x2dd474b8	2.4153443e-11
188	0xabf392c1	-1.7306921e-12
189	0x2b0e5df2	5.057891e-13
190	0x0e19d0b9	1.8959202e-30
191	0x0c9e5030	2.4392016e-31
192	0xaf372af8	-1.6659019e-10
193	0xbe0d1718	-0.13778341
194	0x3d320427	0.04346099
195	0x0acf3a62	1.9955336e-32
196	0xbcef46e6	-0.029208612
197	0x3dbeb4bf	0.09311818
198	0x3da7d22a	0.081943825
199	0xadc5c067	-2.248175e-11
200	0x3cd0ed7e	0.02550387
201	0xbdd0d848	-0.101975024
202	0x3da9b739	0.082869
203	0x3d2b556e	0.04182952
204	0x3e1b6a75	0.15177329
205	0xbe0eafbc	-0.13934225
206	0xbe14e3c5	-0.14540012
207	0x3e3a20f0	0.18176627
208	0xbd91356a	-0.07090266
209	0xbda0590f	-0.078294866
210	0x3e0a10e3	0.13483004
211	0xbda0563e	-0.078289494
212	0xbdbb0a48	-0.0913282
213	0x3dcb10dd	0.09915326
214	0x8f1d38ee	-7.751662e-30
215	0x3da53e75	0.08068553
216	0xb22f9180	-1.02194235e-08
217	0xbc963c56	-0.018339317
218	0xbe23c619	-0.15993537
219	0xbe131931	-0.14365079
220	0x3118e185	2.2247104e-09
221	0xbe0d1904	-0.13779074
222	0x3c0d849e	0.008637575
223	0x92249655	-5.1934574e-28
224	0xbd82709c	-0.06369135
225	0x3e1a5d16	0.15074572
226	0xb39f6fc6	-7.424346e-08
227	0x3d8d8b3e	0.06911324
228	0x3e1b5dd0	0.15172505
229	0x3cef5b09	0.029218214
230	0x3e1df3f2	0.15425089
231	0xbe289033	-0.16461258
232	0xbd2b9e83	-0.041899215
233	0xbdb8bc24	-0.0902026
234	0x3d98204f	0.074280374
235	0x3e2911b9	0.16510667
236	0xbdab7941	-0.08372737
237	0x3d1a0480	0.037601948
238	0xbdf0eb6f	-0.117636554
239	0x3c5d77e8	0.013517357
240	0xbcc38271	-0.02386591
241	0x33766ff6	5.7378166e-08
242	0x3ce715e8	0.028208688
243	0xbd416815	-0.0472184
244	0xbdb0c292	-0.08630861
245	0xae3b2e1f	-4.255984e-11
246	0xbc7c2dc6	-0.015391773
247	0xbdd178df	-0.102281325
248	0x3de657ba	0.11247201
249	0x3cf6d0cd	0.03012886
250	0x3cdbbc74	0.02682326
251	0xbe05dc24	-0.13072258
252	0x3deae1b2	0.11468829
253	0x3da5ffdb	0.08105441
254	0xb21c3f4c	-9.094787e-09
255	0x3d9fe6e5	0.078077115

intercepts1 f4 [1, 64]
0	0x3df4acb2	0.119470015
1	0x3d104dcd	0.035230447
2	0x3f51df19	0.81981045
3	0xbd959a13	-0.07304778
4	0x3e0db94a	0.13840213
5	0x3e11df0c	0.14245242
6	0xbd3419f4	-0.043970063
7	0xbd9d0a21	-0.076679476
8	0xbc727bed	-0.014800054
9	0x3e5cdc0a	0.21568313
10	0xbe116ed8	-0.1420244
11	0x3de5cb88	0.11220461
12	0x3e0bdf72	0.13659456
13	0xbdc9759a	-0.09836884
14	0xbd6f4f69	-0.05842534
15	0xbe6d34fc	-0.23164743
16	0xbd1126d6	-0.035437427
17	0x3e97416c	0.295421
18	0xbcfb8a34	-0.030705549
19	0x3d26be51	0.040708844
20	0x3ec05d23	0.37571058
21	0x3e459d84	0.19298369
22	0xbe35c04c	-0.17749137
23	0x3e44fe4a	0.19237629
24	0x3da86619	0.082225986
25	0x3e3c859b	0.18410341
26	0x3e38f109	0.18060698
27	0xbd8aba20	-0.06773782
28	0x3e1527c4	0.1456595
29	0xbd966a5e	-0.07344507
30	0x3d6b0e6e	0.057386808
31	0xbe2fec05	-0.17179878
32	0xbdb34a50	-0.08754408
33	0x3e0d3d56	0.13792929
34	0xbe1085f3	-0.14113598
35	0x3ee1ca4f	0.44099662
36	0xbe2b1b38	-0.16709602
37	0xbdd4b826	-0.10386686
38	0x3e2bd75c	0.16781372
39	0xbe3e5025	-0.1858526
40	0x3d92e284	0.07172111
41	0xbe02c92a	-0.1277205
42	0x3e0d072f	0.13772272
43	0x3f106fbd	0.564205
44	0x3ec49b40	0.38399696
45	0x3d965571	0.073405154
46	0xbe41acfb	-0.18913643
47	0x3e272274	0.16321737
48	0x3deeee7e	0.116665825
49	0x3df80ee3	0.121122144
50	0x3f319344	0.69365335
51	0x3eab65b8	0.33476043
52	0x3e659b04	0.22422415
53	0xbd96f537	-0.0737099
54	0x3d0d7653	0.03453667
55	0xbdc8c2a8	-0.09802753
56	0x3de6d9ca	0.11272009
57	0xbe11732e	-0.14204094
58	0xbda9bc4d	-0.08287869
59	0x3e4084b0	0.18800616
60	0x3d850504	0.06495097
61	0x3e208967	0.15677415
62	0xbddc829b	-0.107670985
63	0xbe0ba938	-0.1363877

coefficient2 f4 [64, 32]
0	0x3dd9a9c6	0.10628085
1	0x37dc749b	2.6280342e-05
2	0x3252a64a	1.22614185e-08
3	0xba903498	-0.0011002002
4	0x35ee842a	1.7770847e-06
5	0x15ca6c9f	8.1758524e-26
6	0x8dbe44b3	-1.1726193e-30
7	0xbc58c8b8	-0.013231449
8	0xbb72f39f	-0.003707148
9	0x3dea2bb6	0.114341184
10	0x8e61bb31	-2.782352e-30
11	0xbd5daa11	-0.054117266
12	0xbda31122	-0.07962252
13	0xbe3ae021	-0.18249561
14	0x3d0a70c8	0.033798963
15	0xb0053463	-4.8459564e-10
16	0xb42bcdbd	-1.6000463e-07
17	0x3d7b1b63	0.061305415
18	0x2606c009	4.6750845e-16
19	0x2eae3eac	7.923737e-11
20	0x89fcace3	-6.0829375e-33
21	0x3e1999d8	0.15000093
22	0x36c6fb43	5.9301105e-06
23	0x32300c93	1.0247407e-08
24	0x9c9f766d	-1.055235e-21
25	0xbd74529c	-0.059649095
26	0x37cf39a1	2.4703158e-05
27	0xbd970685	-0.073742904
28	0xb1a8137d	-4.891659e-09
29	0x11867c25	2.1217982e-28
30	0xbe4449e4	-0.19168812
31	0x37b72380	2.1831831e-05
32	0x3d3e1c94	0.046413973
33	0x3cf1458c	0.029452108
34	0x3da55bb6	0.08074133
35	0xbb9cab7d	-0.004781185
36	0xbe7f2b5d	-0.24918886
37	0x3d3ade57	0.045622196
38	0x3deeac5e	0.1165397
39	0xbd3e4bca	-0.046458997
40	0x3e06a241	0.13147832
41	0xbdddba7a	-0.10826583
42	0xbe189f6b	-0.14904563
43	0xbe2cf5a4	-0.1689058
44	0xbd7bc50f	-0.061467227
45	0x3e3d91b7	0.18512617
46	0x3e2aadfb	0.16667931
47	0xbd89da60	-0.06731105
48	0x3d1db8cc	0.038506314
49	0x3de7a5c8	0.11310917
50	0xbe0a21af	-0.13489412
51	0xbe349df8	-0.17638385
52	0x3e7ddaa8	0.24790442
53	0x3d6b25a5	0.057408947
54	0x3e71f73c	0.23629469
55	0xbdbc8be6	-0.09206371
56	0x3dc9cee5	0.09853915
57	0xbe0c5e61	-0.13707878
58	0xbdf1e2b8	-0.11810821
59	0x3c30ea20	0.010798007
60	0xa5d0e1f7	-3.6235368e-16
61	0xbe2c134f	-0.1680424
62	0xbe25f274	-0.1620577
63	0xbe789e74	-0.24279195
64	0x3edbc3e7	0.429229
65	0x3c1b312a	0.009472171
66	0xbd96e455	-0.0736777
67	0xbe8f3758	-0.2797191
68	0xbe510b4c	-0.20414466
69	0xbd562280	-0.052278996
70	0xbe9ef34a	-0.3104499
71	0xbe06a82c	-0.1315009
72	0x3c54adfb	0.012980933
73	0x3edcea0b	0.4314731
74	0xbd032276	-0.032015286
75	0x3f109576	0.5647806
76	0x3d2009d4	0.039071873
77	0x3ecd84ff	0.4014053
78	0x3e7eb6f6	0.24874482
79	0x34024be8	1.2134808e-07
80	0x173a8296	6.0264664e-25
81	0x3eafb97d	0.34321204
82	0x3e462229	0.19348969
83	0xbdf3665b	-0.11884757
84	0xbe34ef2e	-0.17669365
85	0xbe28f7a4	-0.16500717
86	0xbeb77881	-0.35834125
87	0xbee93530	-0.4554839
88	0xbeb45559	-0.35221365
89	0x3ea74476	0.3266942
90	0x3e8bba44	0.27290547
91	0xbea802dd	-0.32814685
92	0xb78812d1	-1.6221225e-05
93	0x3cd82d6c	0.026388846
94	0xbce708e6	-0.028202485
95	0x970b1b2f	-4.4947633e-25
96	0x19a0f7da	1.6643719e-23
97	0x30a1301c	1.1727965e-09
98	0x30e51994	1.6669213e-09
99	0x0d8f4d46	8.831658e-31
100	0x346ca8f5	2.2040679e-07
101	0x189731a4	3.908271e-24
102	0x357e1f2c	9.4667735e-07
103	0xaf42ddfc	-1.7723062e-10
104	0xabaffcf6	-1.2504709e-12
105	0xb70d3692	-8.416961e-06
106	0x3192cb91	4.272302e-09
107	0x948f5519	-1.4472875e-26
108	0xb0102a4e	-5.2447013e-10
109	0xafe01402	-4.075958e-10
110	0x35d8c462	1.6150409e-06
111	0x3378c8d6	5.792466e-08
112	0x908f9e81	-5.664777e-29
113	0x195d0a2d	1.1427487e-23
114	0x0e1a9c35	1.9057176e-30
115	0x188c5b44	3.6281307e-24
116	0x363c2dba	2.80408e-06
117	0xb5050eca	-4.956788e-07
118	0x9496d345	-1.522946e-26
119	0x208449bf	2.241047e-19
120	0x0ac802b4	1.9260316e-32
121	0x0fe50dd3	2.2586468e-29
122	0x0d714e15	7.4357846e-31
123	0xb484015b	-2.4587902e-07
124	0x8cfaef1f	-3.8662515e-31
125	0xaf1b6bca	-1.4135462e-10
126	0xb29c56bc	-1.8200232e-08
127	0xb6bf228e	-5.6962663e-06
128	0x3e226c2a	0.15861574
129	0xbd547f7d	-0.051879395
130	0x3daf7bba	0.08568521
131	0xbb0a3529	-0.0021088815
132	0x3d8d62f3	0.06903639
133	0xbcad82a9	-0.021180468
134	0xbdb3f4c7	-0.08786922
135	0xbe06cd58	-0.1316427
136	0x3dd431aa	0.10361035
137	0x3dfc835b	0.123297416
138	0x3e35d489	0.17756857
139	0x3e74ac25	0.23893793
140	0xbe063b78	-0.13108623
141	0xbe28dbd9	-0.16490115
142	0x3dca55f6	0.09879677
143	0xbe28f7cd	-0.16500778
144	0xbe83f306	-0.2577135
145	0x3e696e72	0.22796038
146	0xbe2a6a54	-0.16642123
147	0x3e13a28e	0.14417478
148	0x3df2b838	0.11851543
149	0x3dd46495	0.10370747
150	0xbe228ad8	-0.15873277
151	0xbe38d584	-0.180502
152	0xbc4f3430	-0.01264672
153	0xbe05c2d4	-0.13062602
154	0xbda31e4f	-0.07964765
155	0xbdb0f1e0	-0.08639884
156	0xb3b59486	-8.4554856e-08
157	0xbe2f14bb	-0.17097752
158	0x3d5ca0d3	0.05386431
159	0xbe32c3d6	-0.17457518
160	0xbe6974e7	-0.22798501
161	0x3d9c49a5	0.07631234
162	0x3e7bd274	0.24592
163	0xbdadc6b8	-0.08485168
164	0xbe5027bd	-0.20327659
165	0x3cc87181	0.024468185
166	0x3e59cfff	0.2127075
167	0x3e083909	0.13303007
168	0x3d8d948b	0.06913098
169	0xbda35250	-0.07974684
170	0x3c2b31c1	0.010448874
171	0xbe4fc638	-0.20290458
172	0x3dc6fec9	0.09716565
173	0x3de0a48a	0.10968883
174	0x3e761959	0.24033107
175	0xbe02ef2d	-0.12786551
176	0xbe7cbb1f	-0.24680756
177	0x3cfa91d3	0.030587113
178	0x3dbffa3e	0.09373902
179	0x3e0a8191	0.13525988
180	0xbe0dbda2	-0.1384187
181	0xbdfdb084	-0.12387183
182	0xbb4b7e46	-0.0031050607
183	0xbdc39370	-0.09549606
184	0x3e300a94	0.17191535
185	0xbbf7a7eb	-0.007557859
186	0x3e211bc9	0.15733255
187	0x3d05acef	0.032635625
188	0x3030cc5d	6.4318845e-10
189	0xbdbc58ff	-0.09196662
190	0x3e040b76	0.12894997
191	0xbdfb0004	-0.12255862
192	0x3d075784	0.033042446
193	0xbe0ab44d	-0.13545342
194	0xbb0a96b1	-0.0021146948
195	0xbdc1ddd5	-0.09466139
196	0xbe045fcd	-0.1292717
197	0x3e635b74	0.22202855
198	0xbe249943	-0.1607409
199	0x3e08b338	0.13349617
200	0x3e810ec6	0.25206584
201	0xbe646700	-0.22304916
202	0x3db3572f	0.08756863
203	0xbdff7222	-0.12472941
204	0xbe612062	-0.2198501
205	0x3da1f388	0.07907778
206	0x3e690766	0.22756729
207	0xbe812084	-0.2522012
208	0x3d1b55e3	0.037923705
209	0x3c2e5f15	0.0106427865
210	0x3e349ac4	0.17637163
211	0xbe5f33f4	-0.21797162
212	0x3dd6ee23	0.1049464
213	0x3da65177	0.08121007
214	0x3d97c123	0.07409885
215	0x3e572e03	0.21013646
216	0x3e1b1d7a	0.15147963
217	0xbe6085a0	-0.21925974
218	0xbb95fcb2	-0.004577243
219	0xbd615e47	-0.05502155
220	0xa7a80773	-4.6637443e-15
221	0xbd0da62c	-0.034582302
222	0xbd999377	-0.0749883
223	0xbd3210a6	-0.04347291
224	0x3e82e327	0.25563928
225	0xbe56d443	-0.20979409
226	0x3e608907	0.21927272
227	0x8da7424f	-1.0308133e-30
228	0x3d41f2cc	0.04735069
229	0x3e2187c9	0.15774454
230	0xbdb019cd	-0.08598671
231	0xbd4ef650	-0.05052787
232	0xbcedf5e4	-0.029047914
233	0xbd198a72	-0.037485547
234	0x3e4a8edd	0.1978106
235	0x3e3e3603	0.18575291
236	0xbe3768a2	-0.17911008
237	0xbe1ca4ad	-0.15297194
238	0xbca247b4	-0.019809581
239	0xbe5fbfe6	-0.21850547
240	0x3d5a6d42	0.053326853
241	0xbe25be66	-0.16185912
242	0xbb872455	-0.004124204
243	0xbe82cad8	-0.25545382
244	0xbdcb9380	-0.09940243
245	0x3d94d0b0	0.072663665
246	0xbcbb67e7	-0.022876693
247	0x3e6b9bf3	0.23008709
248	0x3e332890	0.17495942
249	0xbd5e1e54	-0.054228142
250	0xbe596b12	-0.2123225
251	0x3e16e957	0.1473745
252	0x36200509	2.3844789e-06
253	0x3e13e550	0.14442945
254	0xbe500990	-0.20316148
255	0x3e731e4a	0.23742023

intercepts2 f4 [1, 32]
0	0xbdd68498	-0.10474509
1	0x3c048978	0.008089416
2	0x3e36be27	0.17845975
3	0xbd8bb3f9	-0.068214364
4	0xbd788ad6	-0.06067928
5	0xbe071261	-0.13190605
6	0x3dc3ee17	0.095668964
7	0x3de4e5eb	0.11176666
8	0xbcf85d40	-0.030317903
9	0x3f4f2838	0.80920744
10	0x3de49aec	0.111623615
11	0x3e87c3af	0.26516482
12	0x3d0c0957	0.034188595
13	0x3e9075cd	0.28214875
14	0xbe00428c	-0.12525386
15	0x3dd02a6e	0.10164343
16	0xbdfc4b3f	-0.123190396
17	0x3e6c0ce4	0.23051792
18	0x3e5ec8e0	0.21756315
19	0xbe63ff96	-0.22265467
20	0xbe78d5ed	-0.24300356
21	0x3d67ef6b	0.05662481
22	0x3dd664b2	0.10468425
23	0x3df087f0	0.11744678
24	0xbe0a4019	-0.13501014
25	0x3d81d677	0.06339734
26	0x3dd6deb8	0.10491699
27	0x3e11b6e1	0.14229919
28	0xbdb09773	-0.08622637
29	0x3e37b96e	0.1794183
30	0xbe6170dc	-0.22015709
31	0x3e703ab4	0.23459893

coefficient3 f4 [32, 1]
0	0x3e1c748a	0.15278831
1	0xbccf49ed	-0.025303805
2	0x3dd84abd	0.1056113
3	0xbe3a3cfe	-0.18187329
4	0xbe38f312	-0.18061474
5	0xbea2db29	-0.3180783
6	0xbead16dc	-0.33806503
7	0xbdf3cbfd	-0.11904142
8	0x3e6a60d9	0.22888507
9	0x3e3924c7	0.18080436
10	0xbea77162	-0.32703692
11	0x3ed65511	0.41861776
12	0x3dbe1776	0.092818186
13	0x3ee0b764	0.43889916
14	0x3e19f431	0.15034558
15	0xbe8a0ce8	-0.26962972
16	0xbc840240	-0.016114354
17	0x3e0a2e0c	0.13494128
18	0xbec81dad	-0.3908514
19	0xbecf86bc	-0.40532482
20	0xbea5dc93	-0.32394847
21	0xbe4e9c47	-0.20176803
22	0xbd4b8130	-0.04968375
23	0xb9180652	-0.00014498204
24	0xbe9920f5	-0.29907957
25	0x3e17f17c	0.14838213
26	0x3db7974c	0.089644045
27	0xbe30b97d	-0.17258258
28	0xbbaa8a9e	-0.0052045127
29	0xbeb2a83e	-0.34893984
30	0xbdc4aab6	-0.09602873
31	0xbe92b367	-0.28652498
